torch_models/SM_model/SM_model.bin (torch, 731855 bytes, 7 tensors)

linear_relu_stack.0.weight f4 [512, 34]
00000000: a1eb 833c 2f4c adbd 60fb 843d 56cd 8b3d
00000010: 10ca bdbd 90a7 73bc d76f e7bd d613 7c3d
00000020: fe6e 87bd aab0 013e 2e55 f93d 921e 8f3c
00000030: 83d3 a7bd ca6b dbbd 35eb a2bc 04b1 45bd
00000040: dbce 9a3d 0720 02be a80c 253e bcc1 09be
00000050: 4e7a 063e 5af8 f3bc adc2 953d 4bdf 883d
00000060: 623d eb3b 5b79 d13c f85c 053e 2ca8 343d
00000070: fb57 ba3d cdca f2bd f608 fa3d b2c3 713d
00000080: f7ee 313d 2715 c23c 3455 d53d faca 2c3e
00000090: ee6c 32bd 4712 d1bd fccf 27bd ff80 e3bd
000000a0: f416 be3d 63b6 d0bd 687f 8abd 3551 043e
000000b0: 61b3 203e d895 a13c 012f 57bd cc83 19bd
000000c0: f0fc 7b3d 35fc 23be 1f85 0fbe 25a8 233e
000000d0: ad5f 2d3e 6cf9 26bc 25c3 0abe fd8b 993b
000000e0: 739e f6bd 1fdc acb9 f7e9 ab3d 6f1f 783d
000000f0: 5cbf a4bc ecac 9a3c 162a 3f3d 458e c9bd
00000100: 3429 6ebd ae07 dc3b 206a c8bd d064 99bd
00000110: 35f1 7c3d 8503 cc3d ea0a 9f3c f703 3fbd
00000120: d1b1 dc3d c3cd 9dbd fdce 77bd 5196 3d3e
00000130: a09b ab3c d4d6 d23a 24cf 6c3d 1a4c 2bbd
00000140: c823 ec3d ff7f 0fbe bd4b 42bd 41dd f2bc
00000150: 7185 90bd 903a 7ebc e5ac d93d a1b7 c03d
00000160: 8e3c 1c3c 43fe 183e 2a84 f8bd 0070 d1bd
00000170: e8b0 9e3d 5948 1bbc 1909 20be 5e1b f3bd
00000180: 3cd1 d5bd 84e0 073e 3e0f 9f3d 64db 073e
00000190: 57be 02be d937 2bbe 89d8 d3bd 6aaa a53c
000001a0: a61e 01bd 2c93 cabd 2abe 023e 1e47 5abd
000001b0: 7d60 f2bd 4028 dc3d 2ea8 84bd 1877 d43d
000001c0: 6e69 273d 7da4 8a3b 4a69 df3c a7cc c7bd
000001d0: d9bd a3bd 4713 a5bd a6bd c6bd cbe5 763c
000001e0: cf56 0c3d 09ef 91bd abf6 e43d 3d6c c3bd
000001f0: 2db3 173d 8795 48bd 3855 18be ec94 a4bd
00000200: 2e78 8f3d 9dfd 8a3d 122f d9bd 6245 9fbd
00000210: 292c 24be ffcc bc3d 28da 173e 8fb8 653d
00000220: d0ee d3bd e2c2 d63d 5b17 1c3e dde6 d5bc
00000230: d783 8abc bde8 8e3d 5e73 563c 3b10 9cbd
00000240: 488c 0ebe d363 ecbd 302a 183c abba 16bc
00000250: 2ddd 053e daad c4bb 3cee 44bd 8997 2bbe
00000260: 0a77 21be 52de aa3d 966b 1c3e 5688 2abb
00000270: ecf6 1cbe 8066 793d 9261 0c3e 4f76 e8bd
00000280: 37f2 38bd 8541 273b a34d c8bd 59d6 22be
00000290: a2c2 993d 07d0 09be 8352 30bd 2b7f babd
000002a0: b111 043e a5a1 073d 4b80 7a3d 43da fcbd
000002b0: abe9 ff3d 4a17 48bb b12d ebbd 5bcb ffbc
000002c0: 7de2 12be a3d7 633c 5178 f43d 90b5 85bd
000002d0: 3471 143e 847a 563d dd91 19bd fd93 2f3d
000002e0: e56a 22bd 3643 23bd d16e e6bd 426b e53d
000002f0: 29d7 d23d 5686 703d e5b9 cf3d 6572 2f3e
00000300: 9718 0f3e 8379 29be d12c 203d b0ff cfbc
00000310: 2d86 6e3d de3b 08bd 0a10 443d 690a 0fbe
00000320: 4d88 a03d fab7 283e c7a8 fcbc 3eb0 0bbe
00000330: 2628 02be 3eff bebc 7eb0 553c e294 183d
00000340: 9be9 fb3c e12b 143e 4ae8 49bd 9269 933d
00000350: c967 c2bd b152 403e 11c8 863d 81d7 c2bc
00000360: 6c07 ad3d 8704 863d fb9a 063d 355e 4fbd
00000370: 64a8 b03c 270b a73c 0235 cdbd b2d4 203b
00000380: 6165 193d 6509 d0bd 4807 8c3c b92a 69bd
00000390: d11a 12be c2a8 c8bd 8a60 0bbe 0392 223d
000003a0: a8d8 d63d 9081 223e cc30 2c3e 0657 8a3d
000003b0: 49c9 ab3d cc96 efbc b3ca 1c3e d92c 32bd
000003c0: e101 79bd 9f70 86bd 511d ddbd 5735 17be
000003d0: 9b85 febc 5d02 293e a3a1 82bd 3745 11be
000003e0: 967f 20bd 9921 1f3e 2f77 413c 77a3 c4bc
000003f0: 7ef0 f3bc 4532 1a3e c2bf 28be a0d2 da3d
0.016103568 -0.084617965 0.064932585 0.06826274 -0.09267056 -0.014871493 -0.11300629 0.061542355
-0.06612967 0.12665048 0.1217445 0.017470632 -0.081946395 -0.107139185 -0.019887546 -0.04826452
0.07558986 -0.1270753 0.16118109 -0.1345281 0.13132593 -0.02978151 0.07312522 0.06683215
0.0071789483 0.025570562 0.13023746 0.044105694 0.09098812 -0.118550874 0.122087404 0.05902452
0.043440785 0.023691727 0.10416642 0.16874304 -0.043560915 -0.10208564 -0.040969834 -0.111085884
0.09281722 -0.101910375 -0.06762582 0.12921603 0.15693428 0.019724771 -0.05253506 -0.037479207
0.061520517 -0.16014178 -0.14015625 0.15982111 0.16931029 -0.010191303 -0.13551004 0.0046858774
-0.120419405 -0.000329704 0.08394235 0.060576852 -0.020110779 0.018881284 0.046670996 -0.09841589
-0.058144763 0.0067147827 -0.09785867 -0.074899316 0.06175347 0.09961609 0.019414384 -0.04663464
0.10776103 -0.077052616 -0.060500134 0.18514372 0.020948231 0.0016085752 0.057814732 -0.041820623
0.11530262 -0.1401367 -0.04743551 -0.029646518 -0.07056702 -0.015516892 0.1062868 0.094100244
0.009535922 0.14940743 -0.12134583 -0.102264404 0.07748586 -0.009477698 -0.1562847 -0.11870454
-0.10440299 0.1326924 0.07766579 0.13267285 -0.12767921 -0.16720523 -0.10344035 0.020222861
-0.03152337 -0.09891352 0.12767854 -0.05329048 -0.1183481 0.107498646 -0.0647739 0.10374278
0.04087203 0.0042310343 0.027271885 -0.09755831 -0.07995195 -0.080603175 -0.09704141 0.015069435
0.034262475 -0.071256705 0.11179861 -0.09542129 0.03703611 -0.048970725 -0.14876258 -0.08036217
0.07005344 0.06786654 -0.10604681 -0.077769056 -0.16032471 0.092187874 0.14829314 0.056084212
-0.10348284 0.1048639 0.15243284 -0.02611106 -0.01690857 0.06977985 0.013089029 -0.07620283
-0.139207 -0.115424775 0.009287402 -0.009199779 0.13072653 -0.00600217 -0.04807876 -0.16757025
-0.15768066 0.083431855 0.15275416 -0.0026021204 -0.15328568 0.060888767 0.13709095 -0.113506906
-0.04515287 0.002552123 -0.09780433 -0.1590208 0.075078264 -0.13458262 -0.04304744 -0.091062866
0.12897374 0.03311314 0.061157506 -0.123463176 0.124957405 -0.003053146 -0.11483324 -0.031224897
-0.14344211 0.013906392 0.11937011 -0.06528771 0.14496309 0.052362934 -0.03749262 0.042865742
-0.039652724 -0.03985902 -0.11251605 0.112020984 0.10294945 0.058721863 0.101428784 0.17133482
0.13974224 -0.1655026 0.03910524 -0.025390476 0.05823343 -0.03326022 0.04786686 -0.13968815
0.07838497 0.16476431 -0.030842198 -0.1364145 -0.12710628 -0.023315068 0.013042567 0.03725136
0.03075104 0.14469863 -0.049293794 0.0719787 -0.09492452 0.18781544 0.065811284 -0.0237844
0.08448681 0.06543832 0.032862645 -0.050626952 0.02156467 0.02039106 -0.10019876 0.0024540839
0.037450198 -0.10158042 0.017093316 -0.05692551 -0.14268042 -0.09797813 -0.13611045 0.03969003
0.10490543 0.15869737 0.1681549 0.0675488 0.083880015 -0.02924671 0.15311699 -0.0434998
-0.060792807 -0.065644495 -0.10796607 -0.14766441 -0.031069567 0.16504808 -0.06378486 -0.1418656
-0.039184175 0.1554016 0.011808201 -0.024003727 -0.029777762 0.15058239 -0.164794 0.10684705

linear_relu_stack.0.bias f4 [512]
00000000: e55b c63c 4dee 053e 16e6 13be 9fce 99bb
00000010: a3fd fb3d 4bce 9dbd 92ed 363d 62d8 7c3c
00000020: eda8 b53d 7a96 e23c 293e b3bd aa3f 243e
00000030: cc0f c5bd 9f32 02be 05fb acbd b010 0ebe
00000040: e0ed 2cbd aa45 8bbc 544f 12be 4dc6 fabd
00000050: 068a 373e 08b5 8a3d 506a 01be 63ad e43c
00000060: 5e4b 91bc ffda b03d df24 fe3d 78b9 8dbd
00000070: e45d 493d 7220 0f3d 5e6f 113e 2a49 11be
00000080: 7d27 433c 8eed 6ebd 30f5 e5bc ef27 26bd
00000090: 5809 f3bd a58c 593d f121 0d3e f756 07be
000000a0: 4cea 593d 8737 b03d e377 65bd a70f f5bd
000000b0: 83ed c93d 9dae a4bd 652e 283e 6439 6b3d
000000c0: 2b05 623b dff0 33bd b4a5 c03c 3278 19bd
000000d0: e387 353e ba67 edbd 36ac 0abc 250c 1c3e
000000e0: 1aa1 f13d 6fc8 983d 11b4 093e 1962 1b3d
000000f0: 719b 13b9 5318 4dbd 0233 4e3c 5008 15be
00000100: bfa3 a83c b85b 0bbe 9dfc 0c3e b4d8 883d
00000110: 2a09 f8bd 312d fcbd 34ae 4e3c acc6 9abd
00000120: 4e6e a7bd f15f 0b3e 7304 f2bd c789 02bd
00000130: 583e fdbd d73a 44bd e569 23bd 2ec3 c1bd
00000140: 538b 09be ea58 18be 7dd4 64bd c028 22be
00000150: b21e 31bd bead 15be 7faf eb3d 7d6a 343d
00000160: dcce 22be 134a 183e 9b1f 8cbd a7c3 5d3d
00000170: a279 09be 0661 763d a60b f03d 01ba f2ba
00000180: e859 853c a765 1cbe 3011 1a3e 12da a63d
00000190: 1a94 0b3e a3c2 a83d f38a 3f3e fda8 28be
000001a0: bc87 413d 8463 223e 6552 b33d 82ea 363e
000001b0: f57f cc3d 1fc4 19be 1c83 bcbc 8ba4 423e
000001c0: a600 c73b d754 d23c 6603 1bbe e526 5cbd
000001d0: 00fe b4bd 23ef 1fbd 3414 443d 6e0b 3a3c
000001e0: a5f9 e1bd 6c3e 373e 528a d1bd 7eba 0b3e
000001f0: 898c 3dbb a993 60bd fd61 e23c 0c71 f53d
00000200: 03e9 14bb cd74 f83d f0e4 afbd e2bd 913b
00000210: a064 26be 5a5d 423e 00fd efbd 6e15 c5bb
00000220: 65bf c3bd 225e 6e3c c04d 133b 8b26 173e
00000230: cbd4 50bd d0a5 9d3d c375 9f3d 1ae8 6dbd
00000240: 5fb2 f9bd ea53 8e3d e403 04be 7215 cc3b
00000250: d0d5 02be 4ff5 893d 4a64 adbd 0e1a 123e
00000260: d7ed f93d d58e e1bd 3a8c 88bc 7e3c de3d
00000270: 03bb d8bd 63da 343d e1c4 403e 4c73 f53d
00000280: 4dec a13d 476f 063e 8e8f e4bd af2e 163e
00000290: bb8d 69bc 3caa 0c3d cff5 abbd e5fe ad3d
000002a0: d0f0 89bd 5cee 08be 4886 aebd 59f7 2e3e
000002b0: 41b9 6b3c 1dac 4f3d 0f07 a43c 1f3f 86bd
000002c0: 48ab 5a3d 5e6d f83d 2b32 54bd 3f55 2a3e
000002d0: 65be 18be 7b76 be3d 1ab7 0f3d 072c 0a3e
000002e0: 59f4 26be 0c73 663b 00eb 1abe 0faf 4e3d
000002f0: 1bc3 b3bd 27e5 383e 54fb 83bd 0bbd 043e
00000300: d1b8 d33d 2ed8 533d a5d3 1e3d 64d3 c1bc
00000310: 2d28 00be 3eb4 cfbd 5042 d13d 6834 f13d
00000320: f2ff 1abd 0777 813d 1fe5 5e3d a2b1 cdbd
00000330: 2a4c f6bd 5e33 abba e368 2bbd 405e ca3d
00000340: 752b a1bd 4aa5 ac3c 1428 18bc 44b1 0c3e
00000350: a8d5 883c f1cc 443e 2f19 083e 7abd e33d
00000360: 1723 eabd 6987 46be 1dde 5ebc 3bdf 44be
00000370: 0c2b 0a3d 155d ab3c ff9d fa3d dbd2 0ebe
00000380: 74bc cb3d 598c 873d d731 04be c9e7 8e3d
00000390: 7b7a a5bd 3aaa 0e3e c9ad a0bd 3e2a c0bc
000003a0: e3d2 e43c 598e 08bd 56d1 bb3d b109 1a3e
000003b0: db83 f73d 6c8c f63c d114 dbbd 5448 e33d
000003c0: c204 3f3d b0ec 113e 0772 e73c 2e47 73bd
000003d0: f595 fa3d 81b6 363e 8f4f 82bd 506a c5bd
000003e0: 9170 2dbe 8ae8 303e cda3 1a3d 4f26 d7bd
000003f0: a619 a2bb 7f82 5d3d e4b9 aa3c 3a72 4bbd
0.02421374 0.13079186 -0.1444324 -0.0046938206 0.12304237 -0.07705363 0.04466016 0.015432449
0.08870111 0.027659643 -0.087520905 0.16039911 -0.09622154 -0.12714623 -0.08446316 -0.13873553
-0.042219043 -0.017000992 -0.14288074 -0.12244854 0.17923746 0.0677281 -0.12638211 0.027914708
-0.017736133 0.0863552 0.12409376 -0.06920141 0.049161807 0.03494305 0.1420264 -0.14188066
0.01191127 -0.05833202 -0.028071016 -0.040565427 -0.118670166 0.053112645 0.13782479 -0.13216768
0.05320196 0.08604341 -0.056022536 -0.11965876 0.09859755 -0.08041117 0.16423948 0.05742778
0.0034487944 -0.043930884 0.023516513 -0.037468143 0.17727618 -0.1159205 -0.00846391 0.15239008
0.11798306 0.07460105 0.13447596 0.03793535 -0.00014076919 -0.050072026 0.012585403 -0.14553952
0.020585893 -0.13609207 0.1376824 0.06681958 -0.12111123 -0.12313307 0.012614775 -0.07557425
-0.08175336 0.13610817 -0.11817255 -0.031869676 -0.12365407 -0.047907677 -0.03989591 -0.09461056
-0.13432054 -0.14877668 -0.055866707 -0.15835857 -0.043242164 -0.14617059 0.115080826 0.044046868
-0.15899223 0.14872007 -0.06841966 0.054141667 -0.13425305 0.060151123 0.11720972 -0.0018518568
0.016278222 -0.15273152 0.15045619 0.08147062 0.13630715 0.08240249 0.18705349 -0.16470714
0.047248587 0.15858275 0.0875595 0.17862895 0.09985343 -0.1501622 -0.023011737 0.1900808
0.0060730753 0.02567522 -0.15138015 -0.05374803 -0.08837509 -0.039046418 0.04787083 0.011355264
-0.11033944 0.17894906 -0.10231461 0.1364536 -0.0028922877 -0.05482832 0.027634615 0.119844526
-0.0022721894 0.12131653 -0.08588588 0.0044476846 -0.16249323 0.18980923 -0.11718178 -0.0060145175
-0.0955799 0.01454881 0.0022476763 0.14760797 -0.050984185 0.07697642 0.07786133 -0.058082677
-0.12192225 0.06949599 -0.12892109 0.0062281424 -0.12776875 0.06736242 -0.08466394 0.14267752
0.122035675 -0.11013571 -0.016668428 0.10851382 -0.10582545 0.044153582 0.18825103 0.11984882
0.07906399 0.13128386 -0.111601934 0.14666246 -0.014254983 0.034342036 -0.08396494 0.08495883
-0.067353845 -0.13372177 -0.08521706 0.17086543 0.01438743 0.05070125 0.020022897 -0.06555008
0.053386003 0.12130235 -0.051805656 0.16634081 -0.1491638 0.09299942 0.03508673 0.13493358
-0.16304149 0.0035163788 -0.15128708 0.050459918 -0.08777448 0.18056165 -0.064444214 0.12962739
0.10337985 0.051719837 0.03877606 -0.02366037 -0.12515326 -0.101418 0.10217726 0.11777574
-0.037841745 0.06321531 0.054417726 -0.100436464 -0.12026246 -0.0013061573 -0.041848075 0.09881258
-0.07869617 0.02107491 -0.009286899 0.13739496 0.016703442 0.19218804 0.13290857 0.11120124
-0.11432474 -0.19387592 -0.013602761 -0.1922578 0.03373246 0.020918408 0.122371666 -0.13947622
0.09948054 0.06618566 -0.12909637 0.06977803 -0.08080002 0.13932124 -0.07845647 -0.023457643
0.02793259 -0.03333888 0.09170787 0.1504276 0.12085696 0.030096255 -0.1069733 0.1109778
0.046635397 0.14250445 0.028252615 -0.059394054 0.12235633 0.17843057 -0.06362831 -0.09639418
-0.16937472 0.17276207 0.03775387 -0.10505354 -0.004946905 0.05407953 0.020840593 -0.04966948

linear_relu_stack.3.weight f4 [256, 512]
00000000: f651 a93b 8e56 00bd 6cbe 7e3d 3288 3eba
00000010: ca82 57bd dfd7 af3c f194 e43c 5378 2c3d
00000020: 3cc7 59bc cb3b 6abc 6f7c d3bc 14fe 27bd
00000030: 6083 693c ece0 703c e8ea 4fbd ba8a 88bd
00000040: 86a4 043b 3861 2cbd 78a8 423c 60a7 9bbc
00000050: 6d23 01bd c08b 5e3b 6459 c9bc a4ad 753a
00000060: f8e4 1cbc 7db8 ae3c 3049 dabc f972 52bd
00000070: 3cc3 c4bc c8e5 083c 5078 a5bc c6e3 563c
00000080: 65c9 193d 320c 99bc 5ece 05bd 9bcf 363d
00000090: 3b7a f7bc edd8 023c c77e aa3c 9a81 40bc
000000a0: 368b 22bd b366 bc3c eed3 ed39 2cec 383c
000000b0: 69a7 873c 511b f5bc c7d4 05bc 068d c53c
000000c0: 5b8e 9abc 48f1 213d 6f9a 8dbc 7ef9 743d
000000d0: 4aa3 24bd 1c1c 143c 1cb9 3d3d ab24 d83c
000000e0: e418 deb9 83c8 3cbc b913 01bc f7f9 a83c
000000f0: 8fa9 2cbd a89a 6c3d 984e 5f3a af58 9e3c
00000100: e004 52bc 0c6a 243d ab5e 8cbb 4538 26ba
00000110: b4be 653b 893f a63c 15b0 9a3c 7b6d 633c
00000120: c11b d83c 3438 093b e324 c13c 4667 bc3b
00000130: 6a3f 6d3d db29 3a3c 6e2e 083d f03d 233d
00000140: 5d2d 45bc 9a29 2abd d222 643b 5bdc 403d
00000150: 568e 613c 6772 90bc 9cc0 68bc f226 0dbd
00000160: 483a 153d 366e 403d 2518 f3bc 6461 373d
00000170: 0d1b 083d 2caa 26bd ee3b fa3c 6870 803c
00000180: 17ff b63c 0083 023d 6950 ff3c ea86 5dbd
00000190: fa79 59bc e5e6 113d bf3f 1fbd 4cbe 06bd
000001a0: 85de 29bb 870d 703c 5f58 f73c 47e5 ed3c
000001b0: beef e8ba 9f87 973b ef38 40bd fd42 40bd
000001c0: bb81 66bc ffac 2fbc 10a4 c03c e70a f73c
000001d0: 6eae ab3c 0e48 b7bb deb3 743d 0a65 e0bc
000001e0: 8dd8 d23c f8c8 b33c 290b 38bc ff3f 073c
000001f0: af3b 4e3d 5d7d e1bc 354d 1fbd 244d 2abd
00000200: a64a ee3c caf2 273d 9b7e 5c3d 6bdc 353d
00000210: cedc bf3c 5f8a 5bbc 6bb9 52bd 7e34 603c
00000220: 5d74 84bb 7167 23bd 9930 bb3c 113c 07bd
00000230: 54d6 13bc af6d a03c 19e0 c9bc 6610 d73c
00000240: 83af d2bc 8e91 1e3c 9f2a 02bd 7b37 873b
00000250: 2d2a ae3c eff5 d53b 3873 c63c 3182 52bc
00000260: ab1c d03c 9f4b 2d3d 72e3 163d 9a3c 71bc
00000270: 7b10 bbbc 7d0d 193d 67e7 e4bc 6801 2bbd
00000280: 538d 9fbc b8c5 4dbd 31fd 193c f195 9ebc
00000290: 52ed 9abc 008f 95bc 89b1 52bd cf50 013d
000002a0: 7dbb 313d 7467 893c c611 033c c997 31bd
000002b0: b937 233d 4c9a 17bd 6e08 213d 8028 583c
000002c0: 0305 973a ff03 fbbc 3419 453d fec0 4dbb
000002d0: 8338 e73c ee43 2dbc e2f4 c0bb 13d4 16bc
000002e0: 05bb a33b ec90 953c fa29 9fbb de83 213d
000002f0: 2b9c 4d3d 1cd6 6fbd d38c 553d 75a2 c13c
00000300: 57f9 c73c 4db4 a03b 498b cb3c ed15 5c3c
00000310: c90f 8a3c f9f0 6a3d 42b8 7bbb fb09 bdbc
00000320: 2ed7 0cbd 185c 573c 407c 39bd 78d1 e1bb
00000330: 27c2 34bd c181 063d 1f2d 003d f201 2abc
00000340: 9c2d 373c b486 d63c dd80 f4bc d674 c83b
00000350: ffee 9cbc ed13 03bd a682 273d 953e 27bd
00000360: 4de5 1c3d 8ef4 4f3c c017 b33b fcac 483d
00000370: 005e a23c 05ea e73c 69db cc3c ff22 c6bb
00000380: 4afa 063c 757e 40bc a863 0e3d 883b 3b3a
00000390: 5859 6d3b 21e8 df3b 4939 9dbb 8218 9abc
000003a0: 7f94 e7bb 5929 09bd 6124 dabc 2d37 ceba
000003b0: 1a46 cf3a 9135 c9bc f5c2 bd3b 2cde f53b
000003c0: bb47 d93c dbef f3bc be70 93bc 1abe b93b
000003d0: a8d9 6e3d 7922 16bd 5800 e43b 3467 bcbc
000003e0: 46aa 88bb 4b80 0c3c 6fa3 1c3c e0fe 14bd
000003f0: ce1f 0c3d 0a80 4f3c a905 35bd 0fa4 b73c
0.005167241 -0.031332545 0.06219332 -0.00072682195 -0.052614965 0.02146524 0.027903052 0.042106938
-0.01329213 -0.014296482 -0.02581617 -0.041013792 0.014252514 0.014702063 -0.050761133 -0.06667085
0.0020239665 -0.042084903 0.011880986 -0.019000709 -0.031527925 0.003395781 -0.024578758 0.0009371883
-0.009576075 0.021328205 -0.026646227 -0.051379178 -0.024018876 0.008355565 -0.020198971 0.013115829
0.03754558 -0.018682573 -0.03266751 0.04463158 -0.030209651 0.007986289 0.020812405 -0.011749649
-0.039683543 0.02299819 0.00045362063 0.0112867765 0.01655932 -0.029920252 -0.008168406 0.024115097
-0.018866709 0.039536744 -0.017285554 0.059808247 -0.040194787 0.009039905 0.046319112 0.026384672
-0.00042361685 -0.011522415 -0.007878237 0.020627005 -0.04215389 0.05776468 0.0008518486 0.019329397
-0.012818545 0.040140197 -0.0042837462 -0.0006340782 0.0035056295 0.020293968 0.01888279 0.013881083
0.026380422 0.002093804 0.02357716 0.005749616 0.057921804 0.011362518 0.033247404 0.03985399
-0.012034741 -0.04154358 0.0034810794 0.047085147 0.013766846 -0.017632676 -0.014206078 -0.03446097
0.036432534 0.046980105 -0.029674599 0.044770613 0.033228923 -0.040689632 0.030546155 0.0156786
0.022338433 0.031863213 0.031166272 -0.054083742 -0.01327371 0.03562059 -0.038879152 -0.032896325
-0.0025919985 0.014651663 0.030193506 0.029039992 -0.0017771644 0.0046243216 -0.046929296 -0.046938885
-0.014069016 -0.010722398 0.023515731 0.030156566 0.020957198 -0.0055933064 0.059741847 -0.02739193
0.025738025 0.021946415 -0.01123313 0.008255004 0.050349887 -0.027525598 -0.03889199 -0.041577473
0.02908833 0.041003026 0.053831678 0.04439966 0.023420718 -0.013399689 -0.05144636 0.01368439
-0.004042192 -0.03989357 0.022850322 -0.03301627 -0.009023268 0.019583551 -0.02464299 0.026252937
-0.025718456 0.009678258 -0.031778928 0.004126487 0.021260345 0.0065295617 0.024224862 -0.012848423
0.025404295 0.042308446 0.036838003 -0.014723921 -0.022835007 0.03736638 -0.027942372 -0.041749388
-0.019476568 -0.050237387 0.009398744 -0.019358607 -0.018911991 -0.018256664 -0.051438842 0.031571206
0.043391693 0.016772963 0.007999843 -0.043357644 0.039848063 -0.037012383 0.03931468 0.01319325
0.0011521879 -0.030641554 0.04811974 -0.003139555 0.02822519 -0.010575278 -0.0058885673 -0.009205836
0.0049966597 0.01825758 -0.004857299 0.0394324 0.05019776 -0.0585538 0.052136254 0.023637036
0.024410887 0.004904306 0.02484669 0.013432962 0.01685323 0.057358716 -0.0038409387 -0.023076048
-0.0343849 0.013144515 -0.04528451 -0.0068914257 -0.04413047 0.032838587 0.03129303 -0.01037644
0.011180308 0.026187278 -0.029846603 0.0061174436 -0.019156931 -0.032001425 0.04089608 -0.040831167
0.038304616 0.012692584 0.0054654777 0.048993096 0.019820213 0.028309831 0.025006967 -0.0060466523
0.0082383845 -0.0117489 0.03476301 0.0007142355 0.0036216583 0.006833092 -0.0047980887 -0.018810514
-0.0070672627 -0.033486698 -0.026628675 -0.0015732996 0.0015813739 -0.024561675 0.005791063 0.0075032916
0.026523462 -0.029777458 -0.017998096 0.005668414 0.058313042 -0.03665397 0.006958049 -0.02299843
-0.004170689 0.008575509 0.00956045 -0.03637588 0.03421002 0.012664804 -0.04419485 0.022417096

linear_relu_stack.3.bias f4 [256]
00000000: b65b c4bc 8aeb 7a3c 9dcb b33c bbb5 273d
00000010: e93f 1b3c b248 3cbc 40a9 f73c 20b1 1f3d
00000020: f6d3 e1bc d517 a8bc abaa e1bc b0c3 a9bc
00000030: 40cb 5c3d 04de b43b 4d9b 8abc 57d0 f63b
00000040: d813 473d bdb5 ec3a 55c7 823c 4d92 bd3c
00000050: 75d5 ed3b 87f3 5a3d 54eb 4cbd ee89 6fbc
00000060: 62c6 9abc 919c 81bd 957e 8fba ca3a 483d
00000070: 199d 8bbc 90f8 2b3d 45da 52bd 614c beba
00000080: 4b2f 223d 7b83 49bd 6432 fabc dd99 28bb
00000090: bd24 af3c 12ab 32bd 99bb b8bb d999 21bd
000000a0: 90c3 c43c f170 64bd faf3 8e3c 7830 0bbd
000000b0: d3b1 63bc 6e4c 3e3d 89af 26bd e923 563d
000000c0: 6f92 0e3c 20cf 4c3c 349f 42bc dc15 263d
000000d0: c450 a23c 59e7 0fbb a176 ebbc e53d 2e3c
000000e0: 9531 003d 72f8 443c add4 50bd aeb6 1a39
000000f0: 7b1d 583d e03f 603d b538 33bc 1246 053d
00000100: 3d38 25bc 9b59 8a3b 8531 fdba 0968 4b3d
00000110: 08bb 04bd 4fe9 c5bc 0866 e93b 056e b73c
00000120: 3958 063d a497 c93c 14ec 1ebb 2049 553d
00000130: 33de 2039 e4eb afbb 9f7a ecbc f4a6 c33c
00000140: 9f2c 1f3d 3339 5bbb 7941 8a3c abc7 fdbb
00000150: 29b1 d13c 1177 a5bb a356 803b 193e 6dbd
00000160: dd64 69bb abd1 953c f6f2 f93c 48b3 32bd
00000170: 3d59 07bd 84e2 bcbc 3941 a13c 273c 01bd
00000180: 605c 7fbd 9d89 8f3c 92e9 4cbd b1f8 7fbd
00000190: 8ad7 7a3b 79df b53c d62e 4f3c c48f 5a3d
000001a0: cb87 583d 6b62 40bc 58be 583d 651b 8b3c
000001b0: 133d 213d 662e d8bc 5678 69bc 2af4 2a3d
000001c0: 16aa ec3b 5f7c 62bc cc9b 5a3d 65c7 4dbc
000001d0: 27d8 573d 3483 5cbd 4af0 56bd ba21 963c
000001e0: 23ce 4c3d 12da d13c ce70 2d3c 1494 843b
000001f0: 2e4b ccbb 73df 893c cb55 a73c 81a4 f3bc
00000200: 8543 053b 71a1 3f3d 2504 843c f8aa f9bc
00000210: 5d72 82bc c42c dc3c 38f3 c3bc a8fd 13bd
00000220: f48a 193c fc9b 283b d49b 4e3d 5aa6 c1bb
00000230: 4592 9c3c b119 ac3c 5b60 68bc 2072 703c
00000240: 8b3f e0bc 1991 c6bc ff40 9a3c de0b 3a3c
00000250: 220e 77bc 16ef 8fbc d1d6 f93b 6d0b bdbb
00000260: 6cc9 053d 4a43 29bb 7c7d cf3c 44ab 11bd
00000270: 3465 bbbb c4dc 61bc 4517 acbc 261a 6c3d
00000280: dda1 68bc d162 32bd 90fe bb3b 1a16 a33b
00000290: f4d9 5f3b 1b04 d2bc 3e57 d0bc 0abd 903b
000002a0: 57f5 90bc ec42 2cbc d0b4 46bc 5cdb bebc
000002b0: 73fc de3b 70b7 293d e6eb 533d eabd 4f3d
000002c0: bfc2 97bc 88d4 6bbc 757f 2f3b 47ce 07bd
000002d0: af3c 96bc 36b9 803c 1257 07bd d3f8 8dbd
000002e0: 721f 983c 5b25 40ba 332c 82bc 38f8 293c
000002f0: 1e1e 1a3c 7f9a 73bd a3ae 6a3d b915 5bbd
00000300: bc91 babb a14a a4bc 15c9 053d a1a8 5a3d
00000310: f71b c03c 8503 f2bc ffe5 233b ea7a 02bd
00000320: 9ab2 a1bb 360b 20bd e38c db3c f865 a5bc
00000330: b4ee 23bd 6549 853c 6459 f93c 0c7b ee3a
00000340: 4f0c 233c 73ac 403d 39f2 f63c edf9 19bb
00000350: b44f 05bd 9149 733c c986 cebc 85ad ce3c
00000360: 04fe 5e3d 5263 1c3d edd3 9e3b 89f7 2b3d
00000370: c1ce 4a3d 1a9a 2e3d 54c6 223c 75e3 963c
00000380: 870b ce3c 15e7 663d b936 2bbd b366 0a3b
00000390: 6fe6 653c 754d 6abc 780e 943c fa7d ac3c
000003a0: 32f4 313c 6d25 f33c bdd5 85bc 9e68 b3bc
000003b0: 0112 77bd 20c3 22bd a97c 533d 1507 fa3c
000003c0: bf07 13bd bb2d 05bd f7e9 1e3d ac61 623c
000003d0: c523 f13a 1dbd 3e3d 4fe4 923c bd53 fb3c
000003e0: 29d4 fcba 7560 2f3d 6c92 193c 34f2 14bb
000003f0: 8f77 453c 2bc9 073d b9ec e1bc 64f0 8f3c
-0.023969512 0.015314946 0.021947676 0.040944796 0.009475687 -0.011491941 0.030232072 0.03898728
-0.027566891 -0.020519176 -0.027547201 -0.020723194 0.05390477 0.0055196304 -0.016919756 0.0075321603
0.04860291 0.0018059533 0.01596419 0.02314105 0.007258112 0.053454902 -0.050029114 -0.014620287
-0.018893424 -0.06328691 -0.0010947759 0.04888419 -0.017042683 0.041985095 -0.05147769 -0.0014518612
0.039595883 -0.049197655 -0.030541606 -0.0025726475 0.021379823 -0.043620177 -0.0056375978 -0.03945336
0.024019033 -0.05577177 0.017450321 -0.03398177 -0.013897377 0.046459608 -0.040694747 0.05228034
0.008701905 0.012500554 -0.011878777 0.04054819 0.019813903 -0.0021957962 -0.02874309 0.010634874
0.031297285 0.012022125 -0.050984073 0.00014754638 0.05276249 0.054748416 -0.010938813 0.032537527
-0.010084209 0.0042221076 -0.0019317126 0.049659763 -0.03240493 -0.024159102 0.007122759 0.022391329
0.03279898 0.02460844 -0.00242496 0.05207169 0.00015341565 -0.0053686965 -0.028867064 0.02388332
0.038860913 -0.0033450841 0.016876923 -0.0077447495 0.025597172 -0.005049594 0.003916578 -0.05792055
-0.0035613098 0.018288454 0.03051136 -0.043628007 -0.03304409 -0.02305723 0.01968442 -0.031551506
-0.062343955 0.017521674 -0.050027438 -0.06249303 0.0038275444 0.022201287 0.012645444 0.05335976
0.052863877 -0.011742215 0.0529159 0.016980836 0.039364886 -0.026389312 -0.014249882 0.04173676
0.0072224243 -0.013823598 0.053371236 -0.012559746 0.052696373 -0.053836063 -0.05247525 0.018326629
0.050001275 0.02561668 0.010585977 0.0040459726 -0.006234548 0.016830182 0.020426651 -0.029741528
0.0020334434 0.046784822 0.016115258 -0.030477032 -0.015923673 0.026876815 -0.023919687 -0.036130577
0.009371508 0.002572774 0.050441578 -0.005909723 0.019112715 0.021008344 -0.014183129 0.014675647
-0.02737405 -0.02423911 0.01882982 0.011355368 -0.015079053 -0.01757006 0.007624485 -0.0057691843
0.032662794 -0.002582746 0.02532839 -0.035563722 -0.0057188515 -0.013785545 -0.02100719 0.057642125
-0.014198747 -0.04355127 0.0057371333 0.004977 0.003415701 -0.025636723 -0.025432225 0.0044170665
-0.017695112 -0.010514002 -0.01212807 -0.023297958 0.0068049966 0.041434705 0.051738642 0.050718226
-0.01852548 -0.014393933 0.0026778851 -0.033155706 -0.018339483 0.015713315 -0.03304202 -0.06932225
0.018569682 -0.0007329785 -0.015890216 0.010374121 0.009406595 -0.05947351 0.057295453 -0.053487513
-0.0056936424 -0.020055117 0.03266247 0.053383473 0.023450835 -0.029542694 0.0025008915 -0.0318555
-0.004934621 -0.03907319 0.026800578 -0.020190224 -0.040022567 0.016270349 0.030438133 0.001819463
0.009951665 0.04703946 0.030144798 -0.0023494915 -0.032546714 0.014849083 -0.025210755 0.025229225
0.054441467 0.038180657 0.004847041 0.041984115 0.049513582 0.04262743 0.00993498 0.018419007
0.025151981 0.05637272 -0.041800234 0.0021118342 0.01403199 -0.014300694 0.018073305 0.021056164
0.010861443 0.029680932 -0.01633727 -0.021900471 -0.060319904 -0.039736867 0.051632557 0.030520955
-0.03589606 -0.032514315 0.038797345 0.013817232 0.0018397501 0.04656707 0.017931132 0.030679578
-0.0019289303 0.042816598 0.009373289 -0.0022727372 0.012052431 0.033150833 -0.027578698 0.017570682

linear_relu_stack.6.weight f4 [128, 256]
00000000: 16b6 973d 3d14 7e3d 7c53 993c ee07 b2bc
00000010: 7da4 c13c 8632 9abd a466 35bd 93ee 07bd
00000020: b342 84bc a156 7e3d 4e21 7cbd 2e1b 07bd
00000030: 5076 743c e96c 63bd 17ba 933d ceb7 9cbd
00000040: 2278 5dbd fcee cebc 2593 373d 0793 843c
00000050: bac2 0b3d 6fcb 613d 0ad4 973d e2f0 323d
00000060: b0ed 69bd caea 5bbc d0ad 67bc 2b5d 373d
00000070: d6f0 a5bc e1be b23c 4719 063c 77c3 acbc
00000080: 86f4 5e3c 9c02 d23c 25bd ba3c 0918 013d
00000090: f921 743d 81f9 9ebc ff99 9c3d edd3 8f3d
000000a0: 543f 4ebd 4d86 b93b a06a 493d 01c9 8b3d
000000b0: 7b74 89bb 91e7 7d3d 072c 04bc 96e5 d8bc
000000c0: 29c3 93bc 304d e7bb 5b5f f13c d9a8 b8bc
000000d0: 1c16 5fbd b1dc c53b 38c1 c63b 4b3b 4e3d
000000e0: 6cb9 0cbc 2554 90bd b9b7 053d a56d 8abd
000000f0: 8ee9 94bc 1a77 eabc 8837 98bd 4331 ac3c
00000100: 93b6 b83c 390d 45bd d825 8ebd 782b 8a3a
00000110: ee46 27bc 5239 713c 91c2 2bbd 3edd b23c
00000120: 5baf a53c 6834 c8bc 1f24 e83c db32 123d
00000130: d99b 77bc 81a5 223d 3d0a 28bd 4461 27bc
00000140: adf0 233d 75be dcbc fc94 8dbd 5f79 ebbc
00000150: 8692 753c 9f93 26bd f1dc 863c f3e7 adbc
00000160: 5a16 f03c 9364 473c ffa2 51bd d3a0 0bbd
00000170: 2f52 8d3d 5c97 803d 9874 5cbd 6b44 0ebd
00000180: f770 4f3c 61d8 cabb 68da 80bc 994d 543c
00000190: a1cc ccba a03a 413d 600c 2b3d 9b7e 923c
000001a0: 472d 073d ee4c 983b f443 8fba cd51 6f3d
000001b0: 662e 21bd 0949 53bc b3c3 c4bb 25a2 eabb
000001c0: e915 e13c c4d4 4c3d 0cbf 88bd bfa3 9f3c
000001d0: ca39 83bd a3cb dc3c e9d4 b43c 7407 973c
000001e0: 0016 bb3c c8d2 c73c 0783 673d 052d 6f3b
000001f0: b47b 21bd 1166 86bd b98d c73b f7fd 813d
00000200: d016 823c 6e2b c93b cf29 f6bc cac2 993b
00000210: 14ff 38bc e6b8 63bd d12a 0bbd e182 f53b
00000220: 1f0d 093c 3f5c 193d 4453 cf3c 8b09 943c
00000230: 611f 633c 0ad5 42bd bf12 46bd 1c65 5f3c
00000240: aa51 07bd bd4d 01bd d26c 343b 072a 463d
00000250: 2204 34bc d8d1 cdbb 4074 4dbc 1a97 1c3d
00000260: d5b9 423b 32b3 9a3c c256 bcbc a3b7 6a3d
00000270: aed9 d63c 49bc cbbc 6b35 a0bb 775a 90bd
00000280: c718 113d c1cf 953d 01bc 14bc d191 4dbd
00000290: 23db d1bc 5f8c 363d 2968 923b f14c f8bc
000002a0: bbd4 18bd e1d7 64bc d37d b13c 7ed3 653c
000002b0: ff37 3abd df87 8f3d ce05 143c 9253 94bd
000002c0: 0b1c 923d 00e2 a2bc b023 043d 8428 db3b
000002d0: f004 04bd 5268 34bd 4932 d83c d69e 463d
000002e0: cd29 4bbd 83ac 61bb 5e81 89bc 2686 ab3c
000002f0: d325 823c 1988 c6bc 6466 6abd c817 c93c
00000300: afbd 28bd 30d2 993d 3027 2abd 96db e4bc
00000310: 8437 83bc d87a 823a 674d 7c3b 1c85 623d
00000320: 28aa 89bd efab 453d 0f4b 60bc 6994 b5bc
00000330: a682 433d 40bd 2a3d c7eb b339 bf31 973d
00000340: e0e1 093d 73fa 5d3b ae79 31bd 0e57 b03b
00000350: a613 1dbd 3651 003c 998d a73b 40db 00bd
00000360: 1e07 87bc cec5 35bd 6980 75bd 2f1a 51bc
00000370: f711 85bd 02ae 80bc 0b32 93ba d068 02bd
00000380: a442 043c 602f 4bbd b722 823c 7da5 06bd
00000390: b76d 313d 99d3 bcbc cae2 893d 9d1a 3c3b
000003a0: 302b b83b 827e f03a eccd 67bd 396b 1dbd
000003b0: b080 4cbc 1c03 833c 7ab8 8abc 8ae5 b63c
000003c0: 4c24 3abc 1b0d 743d a774 1cbc 4f8e d33c
000003d0: 9595 ddbc cc6c 793c ee45 53bd 3e98 54bd
000003e0: e480 bbba fd86 f93b c7f2 88bd 4865 313d
000003f0: c501 4a3d a364 7bbc 1769 693d 2c31 543d
0.07407777 0.06203102 0.018716566 -0.021732297 0.023638004 -0.07529168 -0.04428734 -0.033186506
-0.016145086 0.062094335 -0.0615552 -0.032984905 0.014920786 -0.055523787 0.07213228 -0.076522455
-0.054069646 -0.025260441 0.044818062 0.01618339 0.034121253 0.05512565 0.0741349 0.043686755
-0.057111442 -0.013422677 -0.014140561 0.044766586 -0.020256441 0.021819534 0.0081847375 -0.021089299
0.013608104 0.02563601 0.02279527 0.031517062 0.05960271 -0.019406082 0.0764656 0.070228435
-0.050353363 0.005661762 0.04917395 0.06825448 -0.0041947938 0.061988417 -0.008067138 -0.026476663
-0.018037396 -0.007058762 0.029464414 -0.02254145 -0.054464445 0.0060382714 0.006065514 0.050349515
-0.00858913 -0.07047299 0.032645915 -0.06759194 -0.018177774 -0.028621245 -0.07432467 0.021019584
0.022547996 -0.048108313 -0.06940812 0.0010541519 -0.010209782 0.014723139 -0.0419336 0.021834012
0.020225218 -0.024439052 0.028337536 0.03569303 -0.015112841 0.039708618 -0.04102539 -0.010216061
0.04002445 -0.026946286 -0.06913182 -0.028744398 0.014988547 -0.040668126 0.016462775 -0.021228766
0.029307533 0.012169975 -0.051180836 -0.03408892 0.06900441 0.062788695 -0.05382213 -0.034733217
0.01266121 -0.006190345 -0.015729144 0.012957954 -0.0015624949 0.04717505 0.04175985 0.017882636
0.033002164 0.0046478426 -0.0010930286 0.05842762 -0.03935089 -0.012895831 -0.0060047745 -0.0071604424
0.027476268 0.050007597 -0.06677064 0.01948726 -0.06407507 0.02695257 0.02207418 0.018436171
0.022837639 0.0243925 0.05652144 0.003649534 -0.039424613 -0.06562436 0.0060898927 0.06347268
0.015880018 0.0061392104 -0.030049233 0.00469241 -0.011291284 -0.055596255 -0.03397638 0.0074924086
0.008364945 0.03744149 0.025308259 0.018070957 0.013862462 -0.04756645 -0.04835772 0.013634946
-0.033036865 -0.031568278 0.0027530682 0.048379924 -0.010987313 -0.006281119 -0.012539923 0.03823004
0.0029712815 0.018884275 -0.022990588 0.057304036 0.026226845 -0.024870055 -0.0048891804 -0.07048505
0.03542402 0.073150165 -0.009078027 -0.05018789 -0.025617188 0.044567462 0.0044679833 -0.030310126
-0.03731225 -0.013967485 0.021666443 0.014027474 -0.04546356 0.07008337 0.009034587 -0.07242502
0.07134255 -0.019883156 0.032260597 0.0066881794 -0.03223127 -0.0440448 0.026391165 0.04849132
-0.04960041 -0.00344351 -0.01678532 0.02093799 0.015887177 -0.024234818 -0.057226554 0.024547473
-0.04119652 0.07510793 -0.04154128 -0.027936738 -0.016017683 0.0009954823 0.0038498284 0.055302724
-0.06721908 0.04825967 -0.01368977 -0.022165494 0.047732018 0.04168439 0.00034317208 0.07382535
0.033662677 0.0033871203 -0.043328933 0.0053814715 -0.038348816 0.007831862 0.0051133153 -0.031459093
-0.016482886 -0.044378094 -0.059936915 -0.01276259 -0.06497567 -0.015707973 -0.0011230124 -0.03183824
0.008072529 -0.049605727 0.015885694 -0.032872666 0.043317523 -0.023050116 0.0673271 0.0028702386
0.0056203827 0.0018348249 -0.056592867 -0.038432334 -0.012481853 0.015992694 -0.016933668 0.02232625
-0.011361193 0.05958281 -0.009549296 0.025824694 -0.027048865 0.015223693 -0.051580362 -0.051903002
-0.001430538 0.007614969 -0.06686931 0.04330948 0.049318094 -0.015343818 0.056984987 0.051804706

linear_relu_stack.6.bias f4 [128]
00000000: 1f53 e23c 30a7 b0bc e10f b93b 79e3 14bd
00000010: efe4 1d3c 95ef 2cbc dddf 6c3d 83da 863c
00000020: 6662 473d 230d a5bb 2f52 f6bc ee64 373c
00000030: 8320 5cbd 185d 3bbd 6bb9 5fbd 8f1f 22bd
00000040: e6b9 223d 9323 69bc 78aa f53b 05df 40bd
00000050: 9eff 80ba 3ba9 a0ba 639b 723d e332 09bd
00000060: 90eb 763d 5df2 5c3d 2506 2cbd 3bdb 31bc
00000070: d407 873c 4541 24bd c6b6 c83c 5fe7 513d
00000080: 58e5 a33c a488 673d f5f1 5fbc 46e4 fb3c
00000090: 2945 f63c a107 203c 642f 003c 8aaf 55bd
000000a0: db3f 46bd 795a 413d 0542 aebc 44b2 6fbd
000000b0: d6be 533d 6e83 263d fb2b 55bd 301e 8e3b
000000c0: 4323 843c c599 c2bc ab9b 8a3d c896 66bc
000000d0: 508e ebbc fdea b53c ad18 3f3d 532f 6fbc
000000e0: 6410 3dbc b8e8 abbb d803 863d b55e 443d
000000f0: 07ac 76bd 5bdf 583d f671 ebbc a384 c8bb
00000100: 2297 3bbd 4629 2d3b e504 523d d4f4 05bc
00000110: 5f84 0abd cf5f 1d3d 5fea aa3c 4157 a2bc
00000120: 656c 32bc 4a3e 653d 79e1 babc 8ad6 1fbd
00000130: 32b8 7e3d 6d5e 7abc 59e3 42bd 2d68 813d
00000140: 6c6f 59bd 2a95 2bbd 909f cfbc a9ef 1f3d
00000150: f62e 50bc a885 e4bb d027 cbbb ecd9 3dbd
00000160: 8b2a f6bc b6fb 0abd 2e8b 6fbc c3ca d43a
00000170: 66e5 113d 23b9 9cbc 1809 9d3c b017 debc
00000180: 6f7c 75bd 13ec debc fdfe 3b3c c866 47bd
00000190: cff6 c9ba 4b51 503c a306 37bd af2f 323d
000001a0: 630d 8d3d c663 6e3d d02a 653d c896 16bb
000001b0: 4dd7 253d 33bf f2b9 49a6 483d fadb 6f3d
000001c0: b762 bfbb 19f6 f7bc ee3b 21bc bb85 793c
000001d0: 0cfb 2ebd 152a 20bd ef72 f439 da1c 033d
000001e0: b7bc 48bd 8f71 abbc de7c 843d 3cb0 dc3c
000001f0: 20cd d3bc 0789 993b df7d 86bb aaa3 04bd
0.027627526 -0.021564096 0.005647645 -0.036349747 0.009637102 -0.010555168 0.05783068 0.016461616
0.048677824 -0.0050369664 -0.030068485 0.011193497 -0.053741943 -0.045743078 -0.054620188 -0.039580878
0.039728068 -0.014229673 0.007497128 -0.047087688 -0.0009841805 -0.0012257466 0.05923022 -0.033495795
0.060283244 0.053942073 -0.041998047 -0.010855491 0.016483225 -0.04010131 0.024501216 0.051246043
0.02000682 0.056526795 -0.013668527 0.030748498 0.030062275 0.009767444 0.007823799 -0.05216936
-0.04840074 0.047205422 -0.021271715 -0.058519617 0.051695667 0.040652685 -0.052043896 0.0043370947
0.016130095 -0.023754964 0.067679726 -0.014074035 -0.028754383 0.022206778 0.046654392 -0.014598685
-0.011539552 -0.005246248 0.06543702 0.047941882 -0.06022265 0.052947383 -0.028740864 -0.006119327
-0.04579843 0.0026422306 0.0512742 -0.008176047 -0.033817645 0.03842145 0.02086371 -0.019816997
-0.010890101 0.055967607 -0.022812592 -0.03902296 0.06218738 -0.015281302 -0.047580097 0.06318698
-0.053084776 -0.0418903 -0.02534464 0.039046917 -0.012706509 -0.006973941 -0.0061998144 -0.046350405
-0.030049583 -0.033931457 -0.014620585 0.0016234744 0.035619162 -0.019131249 0.019169375 -0.027110904
-0.059933122 -0.027212178 0.011474368 -0.048682004 -0.0015408638 0.012714694 -0.044684064 0.043502506
0.06887319 0.05820062 0.055949032 -0.0022978056 0.04048853 -0.0004630029 0.048986707 0.058559395
-0.005840625 -0.030268716 -0.0098409485 0.015229638 -0.042719886 -0.039102633 0.0004662494 0.032009937
-0.049008097 -0.020928172 0.06469129 0.026939504 -0.025854647 0.0046855244 -0.0041043605 -0.032382645

linear_relu_stack.9.weight f4 [1, 128]
00000000: 452d bd3d 9e2a d9bd 828b 423d c94a b93d
00000010: 88a5 ae3d 15fa d1bd a501 9e3d b9b1 dabc
00000020: 8842 773d 3e7c 143d df5f 3dbd 177c 81bd
00000030: 6d57 9a3b 451e 97bd 452a 2bbd 628b 843d
00000040: 47e0 07bd 1b91 71b9 ecc7 8d3d b6b5 813d
00000050: 77ca 403d 0643 adbd ea70 c13d fcd0 5cbd
00000060: 7892 66bd 564a b4bd 4896 8dbd 14f0 cbbd
00000070: ed3b a3bd 859a c83d fa0e a7bd f2db c33d
00000080: 2109 22bd 82f9 94bd 33bb 99bd ae14 dbbc
00000090: 2b72 b6bc 0d6b 98bc 2412 aa3d 250c a53d
000000a0: 5aff 8bbd ee9e 8a3d efa9 be3d da82 a6bd
000000b0: 8842 39bd 0625 4dbc 3a16 98bd 1c0d 41bd
000000c0: cb3b e23d d2bc 48bd 3f62 95bc d618 373d
000000d0: ccb7 83bd 0264 693d a1b7 58bd e01c 883d
000000e0: f027 25bd 7b81 cbbd b0e6 b1bd 99a1 98bc
000000f0: e844 833d 23fb 5c3d 5982 843d b7e0 9dbc
00000100: 3975 503d 026f a8bd 71aa ca3d 4a44 503d
00000110: c995 b03d ff0d 893d 9ec6 8cbc 0f01 a9bc
00000120: 073a cbbd 0cb6 293d 2b73 ae3d ee03 e63c
00000130: a23e cfbd 3e58 99bd 92e4 fbbc 490f b0bd
00000140: 338c 803d 1afb b3bd b5e9 68bd fe66 aa3d
00000150: c385 a23d 2be7 893d d62a 043d b00e adbd
00000160: 549f 7abd 0045 933d 54d3 ad3d 4010 563d
00000170: 0185 5b3d a639 3d3d f991 03bd 088e cebd
00000180: 6ab4 b43d ff10 5cbd 567e 99bd d016 58bd
00000190: 7dc3 c73d 795b 5dbd 9933 583d e19d 0abd
000001a0: 2755 aebd 8f8d 73bd 60b7 8d3d 57e8 eebc
000001b0: 2490 6ebd b90d 12bd 90c1 45bd 76d2 81bc
000001c0: 73d7 4d3d 3368 adbd 5d3b 803d 20a4 933d
000001d0: 46fe d23d 1470 3fbd 6674 b0bd 6d81 f03c
000001e0: eede 33bd c67d 02bd 071b 88bd 4bbd d9bc
000001f0: b8be 2abd a893 82bd 7bfa 11bd bbed d5bc
0.0923715 -0.10603832 0.047496326 0.09047467 0.08527666 -0.102527775 0.077151574 -0.026696073
0.060366184 0.0362513 -0.046234008 -0.063224964 0.004710129 -0.0737882 -0.04178836 0.06471898
-0.033172872 -0.00023037607 0.06922898 0.06333487 0.047068086 -0.08460049 0.09445365 -0.05391024
-0.056292027 -0.08803241 -0.069134295 -0.09957901 -0.07970414 0.09795097 -0.081571534 0.095634356
-0.039559487 -0.07274152 -0.075064085 -0.02674326 -0.022271236 -0.018605733 0.08304241 0.08058957
-0.06835814 0.06768595 0.09309756 -0.08130427 -0.045229465 -0.012521034 -0.074261144 -0.047131643
0.11046561 -0.049008198 -0.018235324 0.04470142 -0.06431541 0.05698014 -0.052909497 0.066461325
-0.04032129 -0.09936806 -0.08686578 -0.018631743 0.06409627 0.05395044 0.06470174 -0.019272191
0.050893042 -0.08224298 0.0989579 0.050846376 0.08622319 0.06692123 -0.017184552 -0.020630388
-0.09923177 0.04143338 0.0851806 0.028078046 -0.10119368 -0.07487534 -0.03074864 -0.085966654
0.06276741 -0.08788128 -0.056863505 0.083204255 0.07935669 0.06733545 0.032267414 -0.08450067
-0.061187103 0.07190895 0.08487573 0.05226159 0.05359364 0.046197556 -0.032121632 -0.10085684
0.08823474 -0.053727146 -0.074948 -0.05275613 0.09754083 -0.054042313 0.052783582 -0.03384197
-0.08512335 -0.059461173 0.06919742 -0.029163523 -0.058242932 -0.03565762 -0.0482803 -0.015847426
0.050254297 -0.0846714 0.06261323 0.07209039 0.10302405 -0.046737745 -0.08615951 0.02935859
-0.043913774 -0.03185823 -0.0664578 -0.02657952 -0.04168579 -0.063758194 -0.035639267 -0.026114335
